----------------------------------------------------------------
        Layer (type)               Output Shape         Param #
================================================================
            Linear-1                  [-1, 256]          16,640
              SiLU-2                  [-1, 256]               0
            Linear-3                  [-1, 256]          65,792
            Conv2d-4           [-1, 64, 32, 32]           1,216
       GroupNorm32-5           [-1, 64, 32, 32]             128
              SiLU-6           [-1, 64, 32, 32]               0
            Conv2d-7           [-1, 64, 32, 32]          36,928
              SiLU-8                  [-1, 256]               0
            Linear-9                  [-1, 128]          32,896
      GroupNorm32-10           [-1, 64, 32, 32]             128
             SiLU-11           [-1, 64, 32, 32]               0
          Dropout-12           [-1, 64, 32, 32]               0
           Conv2d-13           [-1, 64, 32, 32]          36,928
         Identity-14           [-1, 64, 32, 32]               0
         ResBlock-15           [-1, 64, 32, 32]               0
      GroupNorm32-16           [-1, 64, 32, 32]             128
           Conv2d-17          [-1, 192, 32, 32]          12,480
QKVAttentionLegacy-18             [-1, 64, 1024]               0
           Conv2d-19           [-1, 64, 32, 32]           4,160
   AttentionBlock-20           [-1, 64, 32, 32]               0
      GroupNorm32-21           [-1, 64, 32, 32]             128
             SiLU-22           [-1, 64, 32, 32]               0
           Conv2d-23           [-1, 64, 32, 32]          36,928
             SiLU-24                  [-1, 256]               0
           Linear-25                  [-1, 128]          32,896
      GroupNorm32-26           [-1, 64, 32, 32]             128
             SiLU-27           [-1, 64, 32, 32]               0
          Dropout-28           [-1, 64, 32, 32]               0
           Conv2d-29           [-1, 64, 32, 32]          36,928
         Identity-30           [-1, 64, 32, 32]               0
         ResBlock-31           [-1, 64, 32, 32]               0
      GroupNorm32-32           [-1, 64, 32, 32]             128
           Conv2d-33          [-1, 192, 32, 32]          12,480
QKVAttentionLegacy-34             [-1, 64, 1024]               0
           Conv2d-35           [-1, 64, 32, 32]           4,160
   AttentionBlock-36           [-1, 64, 32, 32]               0
      GroupNorm32-37           [-1, 64, 32, 32]             128
             SiLU-38           [-1, 64, 32, 32]               0
           Conv2d-39           [-1, 64, 32, 32]          36,928
             SiLU-40                  [-1, 256]               0
           Linear-41                  [-1, 128]          32,896
      GroupNorm32-42           [-1, 64, 32, 32]             128
             SiLU-43           [-1, 64, 32, 32]               0
          Dropout-44           [-1, 64, 32, 32]               0
           Conv2d-45           [-1, 64, 32, 32]          36,928
         Identity-46           [-1, 64, 32, 32]               0
         ResBlock-47           [-1, 64, 32, 32]               0
      GroupNorm32-48           [-1, 64, 32, 32]             128
           Conv2d-49          [-1, 192, 32, 32]          12,480
QKVAttentionLegacy-50             [-1, 64, 1024]               0
           Conv2d-51           [-1, 64, 32, 32]           4,160
   AttentionBlock-52           [-1, 64, 32, 32]               0
      GroupNorm32-53           [-1, 64, 32, 32]             128
             SiLU-54           [-1, 64, 32, 32]               0
        AvgPool2d-55           [-1, 64, 16, 16]               0
       Downsample-56           [-1, 64, 16, 16]               0
        AvgPool2d-57           [-1, 64, 16, 16]               0
       Downsample-58           [-1, 64, 16, 16]               0
           Conv2d-59           [-1, 64, 16, 16]          36,928
             SiLU-60                  [-1, 256]               0
           Linear-61                  [-1, 128]          32,896
      GroupNorm32-62           [-1, 64, 16, 16]             128
             SiLU-63           [-1, 64, 16, 16]               0
          Dropout-64           [-1, 64, 16, 16]               0
           Conv2d-65           [-1, 64, 16, 16]          36,928
         Identity-66           [-1, 64, 16, 16]               0
         ResBlock-67           [-1, 64, 16, 16]               0
      GroupNorm32-68           [-1, 64, 16, 16]             128
             SiLU-69           [-1, 64, 16, 16]               0
           Conv2d-70          [-1, 128, 16, 16]          73,856
             SiLU-71                  [-1, 256]               0
           Linear-72                  [-1, 256]          65,792
      GroupNorm32-73          [-1, 128, 16, 16]             256
             SiLU-74          [-1, 128, 16, 16]               0
          Dropout-75          [-1, 128, 16, 16]               0
           Conv2d-76          [-1, 128, 16, 16]         147,584
           Conv2d-77          [-1, 128, 16, 16]           8,320
         ResBlock-78          [-1, 128, 16, 16]               0
      GroupNorm32-79          [-1, 128, 16, 16]             256
           Conv2d-80          [-1, 384, 16, 16]          49,536
QKVAttentionLegacy-81             [-1, 128, 256]               0
           Conv2d-82          [-1, 128, 16, 16]          16,512
   AttentionBlock-83          [-1, 128, 16, 16]               0
      GroupNorm32-84          [-1, 128, 16, 16]             256
             SiLU-85          [-1, 128, 16, 16]               0
           Conv2d-86          [-1, 128, 16, 16]         147,584
             SiLU-87                  [-1, 256]               0
           Linear-88                  [-1, 256]          65,792
      GroupNorm32-89          [-1, 128, 16, 16]             256
             SiLU-90          [-1, 128, 16, 16]               0
          Dropout-91          [-1, 128, 16, 16]               0
           Conv2d-92          [-1, 128, 16, 16]         147,584
         Identity-93          [-1, 128, 16, 16]               0
         ResBlock-94          [-1, 128, 16, 16]               0
      GroupNorm32-95          [-1, 128, 16, 16]             256
           Conv2d-96          [-1, 384, 16, 16]          49,536
QKVAttentionLegacy-97             [-1, 128, 256]               0
           Conv2d-98          [-1, 128, 16, 16]          16,512
   AttentionBlock-99          [-1, 128, 16, 16]               0
     GroupNorm32-100          [-1, 128, 16, 16]             256
            SiLU-101          [-1, 128, 16, 16]               0
          Conv2d-102          [-1, 128, 16, 16]         147,584
            SiLU-103                  [-1, 256]               0
          Linear-104                  [-1, 256]          65,792
     GroupNorm32-105          [-1, 128, 16, 16]             256
            SiLU-106          [-1, 128, 16, 16]               0
         Dropout-107          [-1, 128, 16, 16]               0
          Conv2d-108          [-1, 128, 16, 16]         147,584
        Identity-109          [-1, 128, 16, 16]               0
        ResBlock-110          [-1, 128, 16, 16]               0
     GroupNorm32-111          [-1, 128, 16, 16]             256
          Conv2d-112          [-1, 384, 16, 16]          49,536
QKVAttentionLegacy-113             [-1, 128, 256]               0
          Conv2d-114          [-1, 128, 16, 16]          16,512
  AttentionBlock-115          [-1, 128, 16, 16]               0
     GroupNorm32-116          [-1, 128, 16, 16]             256
            SiLU-117          [-1, 128, 16, 16]               0
       AvgPool2d-118            [-1, 128, 8, 8]               0
      Downsample-119            [-1, 128, 8, 8]               0
       AvgPool2d-120            [-1, 128, 8, 8]               0
      Downsample-121            [-1, 128, 8, 8]               0
          Conv2d-122            [-1, 128, 8, 8]         147,584
            SiLU-123                  [-1, 256]               0
          Linear-124                  [-1, 256]          65,792
     GroupNorm32-125            [-1, 128, 8, 8]             256
            SiLU-126            [-1, 128, 8, 8]               0
         Dropout-127            [-1, 128, 8, 8]               0
          Conv2d-128            [-1, 128, 8, 8]         147,584
        Identity-129            [-1, 128, 8, 8]               0
        ResBlock-130            [-1, 128, 8, 8]               0
     GroupNorm32-131            [-1, 128, 8, 8]             256
            SiLU-132            [-1, 128, 8, 8]               0
          Conv2d-133            [-1, 128, 8, 8]         147,584
            SiLU-134                  [-1, 256]               0
          Linear-135                  [-1, 256]          65,792
     GroupNorm32-136            [-1, 128, 8, 8]             256
            SiLU-137            [-1, 128, 8, 8]               0
         Dropout-138            [-1, 128, 8, 8]               0
          Conv2d-139            [-1, 128, 8, 8]         147,584
        Identity-140            [-1, 128, 8, 8]               0
        ResBlock-141            [-1, 128, 8, 8]               0
     GroupNorm32-142            [-1, 128, 8, 8]             256
          Conv2d-143            [-1, 384, 8, 8]          49,536
QKVAttentionLegacy-144              [-1, 128, 64]               0
          Conv2d-145            [-1, 128, 8, 8]          16,512
  AttentionBlock-146            [-1, 128, 8, 8]               0
     GroupNorm32-147            [-1, 128, 8, 8]             256
            SiLU-148            [-1, 128, 8, 8]               0
          Conv2d-149            [-1, 128, 8, 8]         147,584
            SiLU-150                  [-1, 256]               0
          Linear-151                  [-1, 256]          65,792
     GroupNorm32-152            [-1, 128, 8, 8]             256
            SiLU-153            [-1, 128, 8, 8]               0
         Dropout-154            [-1, 128, 8, 8]               0
          Conv2d-155            [-1, 128, 8, 8]         147,584
        Identity-156            [-1, 128, 8, 8]               0
        ResBlock-157            [-1, 128, 8, 8]               0
     GroupNorm32-158            [-1, 128, 8, 8]             256
          Conv2d-159            [-1, 384, 8, 8]          49,536
QKVAttentionLegacy-160              [-1, 128, 64]               0
          Conv2d-161            [-1, 128, 8, 8]          16,512
  AttentionBlock-162            [-1, 128, 8, 8]               0
     GroupNorm32-163            [-1, 128, 8, 8]             256
            SiLU-164            [-1, 128, 8, 8]               0
          Conv2d-165            [-1, 128, 8, 8]         147,584
            SiLU-166                  [-1, 256]               0
          Linear-167                  [-1, 256]          65,792
     GroupNorm32-168            [-1, 128, 8, 8]             256
            SiLU-169            [-1, 128, 8, 8]               0
         Dropout-170            [-1, 128, 8, 8]               0
          Conv2d-171            [-1, 128, 8, 8]         147,584
        Identity-172            [-1, 128, 8, 8]               0
        ResBlock-173            [-1, 128, 8, 8]               0
     GroupNorm32-174            [-1, 128, 8, 8]             256
          Conv2d-175            [-1, 384, 8, 8]          49,536
QKVAttentionLegacy-176              [-1, 128, 64]               0
          Conv2d-177            [-1, 128, 8, 8]          16,512
  AttentionBlock-178            [-1, 128, 8, 8]               0
     GroupNorm32-179            [-1, 128, 8, 8]             256
            SiLU-180            [-1, 128, 8, 8]               0
       AvgPool2d-181            [-1, 128, 4, 4]               0
      Downsample-182            [-1, 128, 4, 4]               0
       AvgPool2d-183            [-1, 128, 4, 4]               0
      Downsample-184            [-1, 128, 4, 4]               0
          Conv2d-185            [-1, 128, 4, 4]         147,584
            SiLU-186                  [-1, 256]               0
          Linear-187                  [-1, 256]          65,792
     GroupNorm32-188            [-1, 128, 4, 4]             256
            SiLU-189            [-1, 128, 4, 4]               0
         Dropout-190            [-1, 128, 4, 4]               0
          Conv2d-191            [-1, 128, 4, 4]         147,584
        Identity-192            [-1, 128, 4, 4]               0
        ResBlock-193            [-1, 128, 4, 4]               0
     GroupNorm32-194            [-1, 128, 4, 4]             256
            SiLU-195            [-1, 128, 4, 4]               0
          Conv2d-196            [-1, 128, 4, 4]         147,584
            SiLU-197                  [-1, 256]               0
          Linear-198                  [-1, 256]          65,792
     GroupNorm32-199            [-1, 128, 4, 4]             256
            SiLU-200            [-1, 128, 4, 4]               0
         Dropout-201            [-1, 128, 4, 4]               0
          Conv2d-202            [-1, 128, 4, 4]         147,584
        Identity-203            [-1, 128, 4, 4]               0
        ResBlock-204            [-1, 128, 4, 4]               0
     GroupNorm32-205            [-1, 128, 4, 4]             256
            SiLU-206            [-1, 128, 4, 4]               0
          Conv2d-207            [-1, 128, 4, 4]         147,584
            SiLU-208                  [-1, 256]               0
          Linear-209                  [-1, 256]          65,792
     GroupNorm32-210            [-1, 128, 4, 4]             256
            SiLU-211            [-1, 128, 4, 4]               0
         Dropout-212            [-1, 128, 4, 4]               0
          Conv2d-213            [-1, 128, 4, 4]         147,584
        Identity-214            [-1, 128, 4, 4]               0
        ResBlock-215            [-1, 128, 4, 4]               0
     GroupNorm32-216            [-1, 128, 4, 4]             256
            SiLU-217            [-1, 128, 4, 4]               0
          Conv2d-218            [-1, 128, 4, 4]         147,584
            SiLU-219                  [-1, 256]               0
          Linear-220                  [-1, 256]          65,792
     GroupNorm32-221            [-1, 128, 4, 4]             256
            SiLU-222            [-1, 128, 4, 4]               0
         Dropout-223            [-1, 128, 4, 4]               0
          Conv2d-224            [-1, 128, 4, 4]         147,584
        Identity-225            [-1, 128, 4, 4]               0
        ResBlock-226            [-1, 128, 4, 4]               0
     GroupNorm32-227            [-1, 128, 4, 4]             256
            SiLU-228            [-1, 128, 4, 4]               0
          Conv2d-229            [-1, 128, 4, 4]         147,584
            SiLU-230                  [-1, 256]               0
          Linear-231                  [-1, 256]          65,792
     GroupNorm32-232            [-1, 128, 4, 4]             256
            SiLU-233            [-1, 128, 4, 4]               0
         Dropout-234            [-1, 128, 4, 4]               0
          Conv2d-235            [-1, 128, 4, 4]         147,584
        Identity-236            [-1, 128, 4, 4]               0
        ResBlock-237            [-1, 128, 4, 4]               0
     GroupNorm32-238            [-1, 128, 4, 4]             256
          Conv2d-239            [-1, 384, 4, 4]          49,536
QKVAttentionLegacy-240              [-1, 128, 16]               0
          Conv2d-241            [-1, 128, 4, 4]          16,512
  AttentionBlock-242            [-1, 128, 4, 4]               0
     GroupNorm32-243            [-1, 128, 4, 4]             256
            SiLU-244            [-1, 128, 4, 4]               0
          Conv2d-245            [-1, 128, 4, 4]         147,584
            SiLU-246                  [-1, 256]               0
          Linear-247                  [-1, 256]          65,792
     GroupNorm32-248            [-1, 128, 4, 4]             256
            SiLU-249            [-1, 128, 4, 4]               0
         Dropout-250            [-1, 128, 4, 4]               0
          Conv2d-251            [-1, 128, 4, 4]         147,584
        Identity-252            [-1, 128, 4, 4]               0
        ResBlock-253            [-1, 128, 4, 4]               0
     GroupNorm32-254            [-1, 256, 4, 4]             512
            SiLU-255            [-1, 256, 4, 4]               0
          Conv2d-256            [-1, 128, 4, 4]         295,040
            SiLU-257                  [-1, 256]               0
          Linear-258                  [-1, 256]          65,792
     GroupNorm32-259            [-1, 128, 4, 4]             256
            SiLU-260            [-1, 128, 4, 4]               0
         Dropout-261            [-1, 128, 4, 4]               0
          Conv2d-262            [-1, 128, 4, 4]         147,584
          Conv2d-263            [-1, 128, 4, 4]          32,896
        ResBlock-264            [-1, 128, 4, 4]               0
     GroupNorm32-265            [-1, 256, 4, 4]             512
            SiLU-266            [-1, 256, 4, 4]               0
          Conv2d-267            [-1, 128, 4, 4]         295,040
            SiLU-268                  [-1, 256]               0
          Linear-269                  [-1, 256]          65,792
     GroupNorm32-270            [-1, 128, 4, 4]             256
            SiLU-271            [-1, 128, 4, 4]               0
         Dropout-272            [-1, 128, 4, 4]               0
          Conv2d-273            [-1, 128, 4, 4]         147,584
          Conv2d-274            [-1, 128, 4, 4]          32,896
        ResBlock-275            [-1, 128, 4, 4]               0
     GroupNorm32-276            [-1, 256, 4, 4]             512
            SiLU-277            [-1, 256, 4, 4]               0
          Conv2d-278            [-1, 128, 4, 4]         295,040
            SiLU-279                  [-1, 256]               0
          Linear-280                  [-1, 256]          65,792
     GroupNorm32-281            [-1, 128, 4, 4]             256
            SiLU-282            [-1, 128, 4, 4]               0
         Dropout-283            [-1, 128, 4, 4]               0
          Conv2d-284            [-1, 128, 4, 4]         147,584
          Conv2d-285            [-1, 128, 4, 4]          32,896
        ResBlock-286            [-1, 128, 4, 4]               0
     GroupNorm32-287            [-1, 256, 4, 4]             512
            SiLU-288            [-1, 256, 4, 4]               0
          Conv2d-289            [-1, 128, 4, 4]         295,040
            SiLU-290                  [-1, 256]               0
          Linear-291                  [-1, 256]          65,792
     GroupNorm32-292            [-1, 128, 4, 4]             256
            SiLU-293            [-1, 128, 4, 4]               0
         Dropout-294            [-1, 128, 4, 4]               0
          Conv2d-295            [-1, 128, 4, 4]         147,584
          Conv2d-296            [-1, 128, 4, 4]          32,896
        ResBlock-297            [-1, 128, 4, 4]               0
     GroupNorm32-298            [-1, 128, 4, 4]             256
            SiLU-299            [-1, 128, 4, 4]               0
        Upsample-300            [-1, 128, 8, 8]               0
        Upsample-301            [-1, 128, 8, 8]               0
          Conv2d-302            [-1, 128, 8, 8]         147,584
            SiLU-303                  [-1, 256]               0
          Linear-304                  [-1, 256]          65,792
     GroupNorm32-305            [-1, 128, 8, 8]             256
            SiLU-306            [-1, 128, 8, 8]               0
         Dropout-307            [-1, 128, 8, 8]               0
          Conv2d-308            [-1, 128, 8, 8]         147,584
        Identity-309            [-1, 128, 8, 8]               0
        ResBlock-310            [-1, 128, 8, 8]               0
     GroupNorm32-311            [-1, 256, 8, 8]             512
            SiLU-312            [-1, 256, 8, 8]               0
          Conv2d-313            [-1, 128, 8, 8]         295,040
            SiLU-314                  [-1, 256]               0
          Linear-315                  [-1, 256]          65,792
     GroupNorm32-316            [-1, 128, 8, 8]             256
            SiLU-317            [-1, 128, 8, 8]               0
         Dropout-318            [-1, 128, 8, 8]               0
          Conv2d-319            [-1, 128, 8, 8]         147,584
          Conv2d-320            [-1, 128, 8, 8]          32,896
        ResBlock-321            [-1, 128, 8, 8]               0
     GroupNorm32-322            [-1, 128, 8, 8]             256
          Conv2d-323            [-1, 384, 8, 8]          49,536
QKVAttentionLegacy-324              [-1, 128, 64]               0
          Conv2d-325            [-1, 128, 8, 8]          16,512
  AttentionBlock-326            [-1, 128, 8, 8]               0
     GroupNorm32-327            [-1, 256, 8, 8]             512
            SiLU-328            [-1, 256, 8, 8]               0
          Conv2d-329            [-1, 128, 8, 8]         295,040
            SiLU-330                  [-1, 256]               0
          Linear-331                  [-1, 256]          65,792
     GroupNorm32-332            [-1, 128, 8, 8]             256
            SiLU-333            [-1, 128, 8, 8]               0
         Dropout-334            [-1, 128, 8, 8]               0
          Conv2d-335            [-1, 128, 8, 8]         147,584
          Conv2d-336            [-1, 128, 8, 8]          32,896
        ResBlock-337            [-1, 128, 8, 8]               0
     GroupNorm32-338            [-1, 128, 8, 8]             256
          Conv2d-339            [-1, 384, 8, 8]          49,536
QKVAttentionLegacy-340              [-1, 128, 64]               0
          Conv2d-341            [-1, 128, 8, 8]          16,512
  AttentionBlock-342            [-1, 128, 8, 8]               0
     GroupNorm32-343            [-1, 256, 8, 8]             512
            SiLU-344            [-1, 256, 8, 8]               0
          Conv2d-345            [-1, 128, 8, 8]         295,040
            SiLU-346                  [-1, 256]               0
          Linear-347                  [-1, 256]          65,792
     GroupNorm32-348            [-1, 128, 8, 8]             256
            SiLU-349            [-1, 128, 8, 8]               0
         Dropout-350            [-1, 128, 8, 8]               0
          Conv2d-351            [-1, 128, 8, 8]         147,584
          Conv2d-352            [-1, 128, 8, 8]          32,896
        ResBlock-353            [-1, 128, 8, 8]               0
     GroupNorm32-354            [-1, 128, 8, 8]             256
          Conv2d-355            [-1, 384, 8, 8]          49,536
QKVAttentionLegacy-356              [-1, 128, 64]               0
          Conv2d-357            [-1, 128, 8, 8]          16,512
  AttentionBlock-358            [-1, 128, 8, 8]               0
     GroupNorm32-359            [-1, 256, 8, 8]             512
            SiLU-360            [-1, 256, 8, 8]               0
          Conv2d-361            [-1, 128, 8, 8]         295,040
            SiLU-362                  [-1, 256]               0
          Linear-363                  [-1, 256]          65,792
     GroupNorm32-364            [-1, 128, 8, 8]             256
            SiLU-365            [-1, 128, 8, 8]               0
         Dropout-366            [-1, 128, 8, 8]               0
          Conv2d-367            [-1, 128, 8, 8]         147,584
          Conv2d-368            [-1, 128, 8, 8]          32,896
        ResBlock-369            [-1, 128, 8, 8]               0
     GroupNorm32-370            [-1, 128, 8, 8]             256
          Conv2d-371            [-1, 384, 8, 8]          49,536
QKVAttentionLegacy-372              [-1, 128, 64]               0
          Conv2d-373            [-1, 128, 8, 8]          16,512
  AttentionBlock-374            [-1, 128, 8, 8]               0
     GroupNorm32-375            [-1, 128, 8, 8]             256
            SiLU-376            [-1, 128, 8, 8]               0
        Upsample-377          [-1, 128, 16, 16]               0
        Upsample-378          [-1, 128, 16, 16]               0
          Conv2d-379          [-1, 128, 16, 16]         147,584
            SiLU-380                  [-1, 256]               0
          Linear-381                  [-1, 256]          65,792
     GroupNorm32-382          [-1, 128, 16, 16]             256
            SiLU-383          [-1, 128, 16, 16]               0
         Dropout-384          [-1, 128, 16, 16]               0
          Conv2d-385          [-1, 128, 16, 16]         147,584
        Identity-386          [-1, 128, 16, 16]               0
        ResBlock-387          [-1, 128, 16, 16]               0
     GroupNorm32-388          [-1, 256, 16, 16]             512
            SiLU-389          [-1, 256, 16, 16]               0
          Conv2d-390          [-1, 128, 16, 16]         295,040
            SiLU-391                  [-1, 256]               0
          Linear-392                  [-1, 256]          65,792
     GroupNorm32-393          [-1, 128, 16, 16]             256
            SiLU-394          [-1, 128, 16, 16]               0
         Dropout-395          [-1, 128, 16, 16]               0
          Conv2d-396          [-1, 128, 16, 16]         147,584
          Conv2d-397          [-1, 128, 16, 16]          32,896
        ResBlock-398          [-1, 128, 16, 16]               0
     GroupNorm32-399          [-1, 128, 16, 16]             256
          Conv2d-400          [-1, 384, 16, 16]          49,536
QKVAttentionLegacy-401             [-1, 128, 256]               0
          Conv2d-402          [-1, 128, 16, 16]          16,512
  AttentionBlock-403          [-1, 128, 16, 16]               0
     GroupNorm32-404          [-1, 256, 16, 16]             512
            SiLU-405          [-1, 256, 16, 16]               0
          Conv2d-406          [-1, 128, 16, 16]         295,040
            SiLU-407                  [-1, 256]               0
          Linear-408                  [-1, 256]          65,792
     GroupNorm32-409          [-1, 128, 16, 16]             256
            SiLU-410          [-1, 128, 16, 16]               0
         Dropout-411          [-1, 128, 16, 16]               0
          Conv2d-412          [-1, 128, 16, 16]         147,584
          Conv2d-413          [-1, 128, 16, 16]          32,896
        ResBlock-414          [-1, 128, 16, 16]               0
     GroupNorm32-415          [-1, 128, 16, 16]             256
          Conv2d-416          [-1, 384, 16, 16]          49,536
QKVAttentionLegacy-417             [-1, 128, 256]               0
          Conv2d-418          [-1, 128, 16, 16]          16,512
  AttentionBlock-419          [-1, 128, 16, 16]               0
     GroupNorm32-420          [-1, 256, 16, 16]             512
            SiLU-421          [-1, 256, 16, 16]               0
          Conv2d-422          [-1, 128, 16, 16]         295,040
            SiLU-423                  [-1, 256]               0
          Linear-424                  [-1, 256]          65,792
     GroupNorm32-425          [-1, 128, 16, 16]             256
            SiLU-426          [-1, 128, 16, 16]               0
         Dropout-427          [-1, 128, 16, 16]               0
          Conv2d-428          [-1, 128, 16, 16]         147,584
          Conv2d-429          [-1, 128, 16, 16]          32,896
        ResBlock-430          [-1, 128, 16, 16]               0
     GroupNorm32-431          [-1, 128, 16, 16]             256
          Conv2d-432          [-1, 384, 16, 16]          49,536
QKVAttentionLegacy-433             [-1, 128, 256]               0
          Conv2d-434          [-1, 128, 16, 16]          16,512
  AttentionBlock-435          [-1, 128, 16, 16]               0
     GroupNorm32-436          [-1, 192, 16, 16]             384
            SiLU-437          [-1, 192, 16, 16]               0
          Conv2d-438          [-1, 128, 16, 16]         221,312
            SiLU-439                  [-1, 256]               0
          Linear-440                  [-1, 256]          65,792
     GroupNorm32-441          [-1, 128, 16, 16]             256
            SiLU-442          [-1, 128, 16, 16]               0
         Dropout-443          [-1, 128, 16, 16]               0
          Conv2d-444          [-1, 128, 16, 16]         147,584
          Conv2d-445          [-1, 128, 16, 16]          24,704
        ResBlock-446          [-1, 128, 16, 16]               0
     GroupNorm32-447          [-1, 128, 16, 16]             256
          Conv2d-448          [-1, 384, 16, 16]          49,536
QKVAttentionLegacy-449             [-1, 128, 256]               0
          Conv2d-450          [-1, 128, 16, 16]          16,512
  AttentionBlock-451          [-1, 128, 16, 16]               0
     GroupNorm32-452          [-1, 128, 16, 16]             256
            SiLU-453          [-1, 128, 16, 16]               0
        Upsample-454          [-1, 128, 32, 32]               0
        Upsample-455          [-1, 128, 32, 32]               0
          Conv2d-456          [-1, 128, 32, 32]         147,584
            SiLU-457                  [-1, 256]               0
          Linear-458                  [-1, 256]          65,792
     GroupNorm32-459          [-1, 128, 32, 32]             256
            SiLU-460          [-1, 128, 32, 32]               0
         Dropout-461          [-1, 128, 32, 32]               0
          Conv2d-462          [-1, 128, 32, 32]         147,584
        Identity-463          [-1, 128, 32, 32]               0
        ResBlock-464          [-1, 128, 32, 32]               0
     GroupNorm32-465          [-1, 192, 32, 32]             384
            SiLU-466          [-1, 192, 32, 32]               0
          Conv2d-467           [-1, 64, 32, 32]         110,656
            SiLU-468                  [-1, 256]               0
          Linear-469                  [-1, 128]          32,896
     GroupNorm32-470           [-1, 64, 32, 32]             128
            SiLU-471           [-1, 64, 32, 32]               0
         Dropout-472           [-1, 64, 32, 32]               0
          Conv2d-473           [-1, 64, 32, 32]          36,928
          Conv2d-474           [-1, 64, 32, 32]          12,352
        ResBlock-475           [-1, 64, 32, 32]               0
     GroupNorm32-476           [-1, 64, 32, 32]             128
          Conv2d-477          [-1, 192, 32, 32]          12,480
QKVAttentionLegacy-478             [-1, 64, 1024]               0
          Conv2d-479           [-1, 64, 32, 32]           4,160
  AttentionBlock-480           [-1, 64, 32, 32]               0
     GroupNorm32-481          [-1, 128, 32, 32]             256
            SiLU-482          [-1, 128, 32, 32]               0
          Conv2d-483           [-1, 64, 32, 32]          73,792
            SiLU-484                  [-1, 256]               0
          Linear-485                  [-1, 128]          32,896
     GroupNorm32-486           [-1, 64, 32, 32]             128
            SiLU-487           [-1, 64, 32, 32]               0
         Dropout-488           [-1, 64, 32, 32]               0
          Conv2d-489           [-1, 64, 32, 32]          36,928
          Conv2d-490           [-1, 64, 32, 32]           8,256
        ResBlock-491           [-1, 64, 32, 32]               0
     GroupNorm32-492           [-1, 64, 32, 32]             128
          Conv2d-493          [-1, 192, 32, 32]          12,480
QKVAttentionLegacy-494             [-1, 64, 1024]               0
          Conv2d-495           [-1, 64, 32, 32]           4,160
  AttentionBlock-496           [-1, 64, 32, 32]               0
     GroupNorm32-497          [-1, 128, 32, 32]             256
            SiLU-498          [-1, 128, 32, 32]               0
          Conv2d-499           [-1, 64, 32, 32]          73,792
            SiLU-500                  [-1, 256]               0
          Linear-501                  [-1, 128]          32,896
     GroupNorm32-502           [-1, 64, 32, 32]             128
            SiLU-503           [-1, 64, 32, 32]               0
         Dropout-504           [-1, 64, 32, 32]               0
          Conv2d-505           [-1, 64, 32, 32]          36,928
          Conv2d-506           [-1, 64, 32, 32]           8,256
        ResBlock-507           [-1, 64, 32, 32]               0
     GroupNorm32-508           [-1, 64, 32, 32]             128
          Conv2d-509          [-1, 192, 32, 32]          12,480
QKVAttentionLegacy-510             [-1, 64, 1024]               0
          Conv2d-511           [-1, 64, 32, 32]           4,160
  AttentionBlock-512           [-1, 64, 32, 32]               0
     GroupNorm32-513          [-1, 128, 32, 32]             256
            SiLU-514          [-1, 128, 32, 32]               0
          Conv2d-515           [-1, 64, 32, 32]          73,792
            SiLU-516                  [-1, 256]               0
          Linear-517                  [-1, 128]          32,896
     GroupNorm32-518           [-1, 64, 32, 32]             128
            SiLU-519           [-1, 64, 32, 32]               0
         Dropout-520           [-1, 64, 32, 32]               0
          Conv2d-521           [-1, 64, 32, 32]          36,928
          Conv2d-522           [-1, 64, 32, 32]           8,256
        ResBlock-523           [-1, 64, 32, 32]               0
     GroupNorm32-524           [-1, 64, 32, 32]             128
          Conv2d-525          [-1, 192, 32, 32]          12,480
QKVAttentionLegacy-526             [-1, 64, 1024]               0
          Conv2d-527           [-1, 64, 32, 32]           4,160
  AttentionBlock-528           [-1, 64, 32, 32]               0
     GroupNorm32-529           [-1, 64, 32, 32]             128
            SiLU-530           [-1, 64, 32, 32]               0
          Conv2d-531            [-1, 1, 32, 32]             577
       UNetModel-532            [-1, 1, 32, 32]               0
================================================================
Total params: 14,415,361
Trainable params: 14,415,361
Non-trainable params: 0
----------------------------------------------------------------
Input size (MB): 0.01
Forward/backward pass size (MB): 117.48
Params size (MB): 54.99
Estimated Total Size (MB): 172.48
----------------------------------------------------------------